<bound method aec_to_parallel_wrapper.observation_space of <pettingzoo.utils.conversions.aec_to_parallel_wrapper object at 0x00000251029315D0>>
----------------------------------------------------------------
        Layer (type)               Output Shape         Param #
================================================================
            Conv1d-1                [-1, 5, 10]              20
              ReLU-2                [-1, 5, 10]               0
            Conv1d-3                [-1, 10, 8]             160
              ReLU-4                [-1, 10, 8]               0
            Conv1d-5                [-1, 15, 8]             465
              ReLU-6                [-1, 15, 8]               0
            Conv1d-7                [-1, 20, 8]             920
              ReLU-8                [-1, 20, 8]               0
            Conv1d-9                [-1, 25, 8]           1,525
             ReLU-10                [-1, 25, 8]               0
           Conv1d-11                [-1, 30, 6]           2,280
             ReLU-12                [-1, 30, 6]               0
          Flatten-13                  [-1, 180]               0
           Linear-14                  [-1, 100]          18,100
             ReLU-15                  [-1, 100]               0
           Linear-16                    [-1, 1]             101
           Linear-17                    [-1, 5]             505
================================================================
Total params: 24,076
Trainable params: 24,076
Non-trainable params: 0
----------------------------------------------------------------
Input size (MB): 0.00
Forward/backward pass size (MB): 0.01
Params size (MB): 0.09
Estimated Total Size (MB): 0.11
----------------------------------------------------------------
----------------------------------------------------------------
        Layer (type)               Output Shape         Param #
================================================================
            Conv1d-1                [-1, 4, 12]              16
              ReLU-2                [-1, 4, 12]               0
            Conv1d-3                [-1, 8, 10]             104
              ReLU-4                [-1, 8, 10]               0
            Conv1d-5                [-1, 16, 8]             400
              ReLU-6                [-1, 16, 8]               0
            Conv1d-7                [-1, 32, 8]             544
              ReLU-8                [-1, 32, 8]               0
           Flatten-9                  [-1, 256]               0
           Linear-10                  [-1, 100]          25,700
             ReLU-11                  [-1, 100]               0
           Linear-12                    [-1, 1]             101
           Linear-13                    [-1, 5]             505
================================================================
Total params: 27,370
Trainable params: 27,370
Non-trainable params: 0
----------------------------------------------------------------
Input size (MB): 0.00
Forward/backward pass size (MB): 0.01
Params size (MB): 0.10
Estimated Total Size (MB): 0.12
----------------------------------------------------------------
----------------------------------------------------------------
        Layer (type)               Output Shape         Param #
================================================================
            Conv1d-1                [-1, 4, 12]              16
              ReLU-2                [-1, 4, 12]               0
            Conv1d-3                [-1, 8, 10]             104
              ReLU-4                [-1, 8, 10]               0
            Conv1d-5                [-1, 16, 8]             400
              ReLU-6                [-1, 16, 8]               0
            Conv1d-7                [-1, 32, 8]             544
              ReLU-8                [-1, 32, 8]               0
           Flatten-9                  [-1, 256]               0
           Linear-10                  [-1, 100]          25,700
             ReLU-11                  [-1, 100]               0
           Linear-12                    [-1, 1]             101
           Linear-13                    [-1, 5]             505
================================================================
Total params: 27,370
Trainable params: 27,370
Non-trainable params: 0
----------------------------------------------------------------
Input size (MB): 0.00
Forward/backward pass size (MB): 0.01
Params size (MB): 0.10
Estimated Total Size (MB): 0.12
----------------------------------------------------------------
----------------------------------------------------------------
        Layer (type)               Output Shape         Param #
================================================================
            Conv1d-1                [-1, 4, 12]              16
              ReLU-2                [-1, 4, 12]               0
            Conv1d-3                [-1, 8, 10]             104
              ReLU-4                [-1, 8, 10]               0
            Conv1d-5                [-1, 16, 8]             400
              ReLU-6                [-1, 16, 8]               0
            Conv1d-7                [-1, 32, 8]             544
              ReLU-8                [-1, 32, 8]               0
           Flatten-9                  [-1, 256]               0
           Linear-10                  [-1, 100]          25,700
             ReLU-11                  [-1, 100]               0
           Linear-12                    [-1, 1]             101
           Linear-13                    [-1, 5]             505
================================================================
Total params: 27,370
Trainable params: 27,370
Non-trainable params: 0
----------------------------------------------------------------
Input size (MB): 0.00
Forward/backward pass size (MB): 0.01
Params size (MB): 0.10
Estimated Total Size (MB): 0.12
----------------------------------------------------------------
episode: 0
episode 0 terminated at 25
…
