<bound method aec_to_parallel_wrapper.observation_space of <pettingzoo.utils.conversions.aec_to_parallel_wrapper object at 0x000001ADE40D3DC0>>
----------------------------------------------------------------
        Layer (type)               Output Shape         Param #
================================================================
            Conv1d-1                 [-1, 5, 6]              20
              ReLU-2                 [-1, 5, 6]               0
            Conv1d-3                [-1, 10, 4]             160
              ReLU-4                [-1, 10, 4]               0
            Conv1d-5                [-1, 15, 4]             465
              ReLU-6                [-1, 15, 4]               0
            Conv1d-7                [-1, 20, 4]             920
              ReLU-8                [-1, 20, 4]               0
            Conv1d-9                [-1, 25, 4]           1,525
             ReLU-10                [-1, 25, 4]               0
           Conv1d-11                [-1, 30, 2]           2,280
             ReLU-12                [-1, 30, 2]               0
          Flatten-13                   [-1, 60]               0
           Linear-14                  [-1, 100]           6,100
             ReLU-15                  [-1, 100]               0
           Linear-16                    [-1, 1]             101
           Linear-17                    [-1, 5]             505
================================================================
Total params: 12,076
Trainable params: 12,076
Non-trainable params: 0
----------------------------------------------------------------
Input size (MB): 0.00
Forward/backward pass size (MB): 0.01
Params size (MB): 0.05
Estimated Total Size (MB): 0.05
----------------------------------------------------------------
0 12 8
----------------------------------------------------------------
        Layer (type)               Output Shape         Param #
================================================================
            Linear-1                 [-1, 1, 8]             104
          Inputnet-2                 [-1, 1, 8]               0
            Conv1d-3                 [-1, 5, 6]              20
              ReLU-4                 [-1, 5, 6]               0
            Conv1d-5                [-1, 10, 4]             160
              ReLU-6                [-1, 10, 4]               0
            Conv1d-7                [-1, 15, 4]             465
              ReLU-8                [-1, 15, 4]               0
            Conv1d-9                [-1, 20, 4]             920
             ReLU-10                [-1, 20, 4]               0
           Conv1d-11                [-1, 25, 4]           1,525
             ReLU-12                [-1, 25, 4]               0
           Conv1d-13                [-1, 30, 2]           2,280
             ReLU-14                [-1, 30, 2]               0
          Flatten-15                   [-1, 60]               0
           Linear-16                  [-1, 100]           6,100
             ReLU-17                  [-1, 100]               0
           Linear-18                    [-1, 1]             101
           Linear-19                    [-1, 5]             505
         dddQ_Net-20  [[-1, 1], [-1, 5], [-1, 5]]               0
================================================================
Total params: 12,180
Trainable params: 6,810
Non-trainable params: 5,370
----------------------------------------------------------------
Input size (MB): 0.00
Forward/backward pass size (MB): 0.01
Params size (MB): 0.05
Estimated Total Size (MB): 0.05
----------------------------------------------------------------
----------------------------------------------------------------
        Layer (type)               Output Shape         Param #
================================================================
            Conv1d-1                 [-1, 4, 8]              16
              ReLU-2                 [-1, 4, 8]               0
            Conv1d-3                 [-1, 8, 6]             104
              ReLU-4                 [-1, 8, 6]               0
            Conv1d-5                [-1, 16, 4]             400
              ReLU-6                [-1, 16, 4]               0
            Conv1d-7                [-1, 32, 4]             544
              ReLU-8                [-1, 32, 4]               0
           Flatten-9                  [-1, 128]               0
           Linear-10                  [-1, 100]          12,900
             ReLU-11                  [-1, 100]               0
           Linear-12                    [-1, 1]             101
           Linear-13                    [-1, 5]             505
================================================================
Total params: 14,570
Trainable params: 14,570
Non-trainable params: 0
----------------------------------------------------------------
Input size (MB): 0.00
Forward/backward pass size (MB): 0.01
Params size (MB): 0.06
Estimated Total Size (MB): 0.06
----------------------------------------------------------------
2 14 10
----------------------------------------------------------------
        Layer (type)               Output Shape         Param #
================================================================
            Linear-1                [-1, 1, 10]             150
          Inputnet-2                [-1, 1, 10]               0
            Conv1d-3                 [-1, 4, 8]              16
              ReLU-4                 [-1, 4, 8]               0
            Conv1d-5                 [-1, 8, 6]             104
              ReLU-6                 [-1, 8, 6]               0
            Conv1d-7                [-1, 16, 4]             400
              ReLU-8                [-1, 16, 4]               0
            Conv1d-9                [-1, 32, 4]             544
             ReLU-10                [-1, 32, 4]               0
          Flatten-11                  [-1, 128]               0
           Linear-12                  [-1, 100]          12,900
             ReLU-13                  [-1, 100]               0
           Linear-14                    [-1, 1]             101
           Linear-15                    [-1, 5]             505
         dddQ_Net-16  [[-1, 1], [-1, 5], [-1, 5]]               0
================================================================
Total params: 14,720
Trainable params: 13,656
Non-trainable params: 1,064
----------------------------------------------------------------
Input size (MB): 0.00
Forward/backward pass size (MB): 0.01
Params size (MB): 0.06
Estimated Total Size (MB): 0.06
----------------------------------------------------------------
----------------------------------------------------------------
        Layer (type)               Output Shape         Param #
================================================================
            Conv1d-1                 [-1, 4, 8]              16
              ReLU-2                 [-1, 4, 8]               0
            Conv1d-3                 [-1, 8, 6]             104
              ReLU-4                 [-1, 8, 6]               0
            Conv1d-5                [-1, 16, 4]             400
              ReLU-6                [-1, 16, 4]               0
            Conv1d-7                [-1, 32, 4]             544
              ReLU-8                [-1, 32, 4]               0
           Flatten-9                  [-1, 128]               0
           Linear-10                  [-1, 100]          12,900
             ReLU-11                  [-1, 100]               0
           Linear-12                    [-1, 1]             101
           Linear-13                    [-1, 5]             505
================================================================
Total params: 14,570
Trainable params: 14,570
Non-trainable params: 0
----------------------------------------------------------------
Input size (MB): 0.00
Forward/backward pass size (MB): 0.01
Params size (MB): 0.06
Estimated Total Size (MB): 0.06
----------------------------------------------------------------
2 14 10
----------------------------------------------------------------
        Layer (type)               Output Shape         Param #
================================================================
            Linear-1                [-1, 1, 10]             150
          Inputnet-2                [-1, 1, 10]               0
            Conv1d-3                 [-1, 4, 8]              16
              ReLU-4                 [-1, 4, 8]               0
            Conv1d-5                 [-1, 8, 6]             104
              ReLU-6                 [-1, 8, 6]               0
            Conv1d-7                [-1, 16, 4]             400
              ReLU-8                [-1, 16, 4]               0
            Conv1d-9                [-1, 32, 4]             544
             ReLU-10                [-1, 32, 4]               0
          Flatten-11                  [-1, 128]               0
           Linear-12                  [-1, 100]          12,900
             ReLU-13                  [-1, 100]               0
           Linear-14                    [-1, 1]             101
           Linear-15                    [-1, 5]             505
         dddQ_Net-16  [[-1, 1], [-1, 5], [-1, 5]]               0
================================================================
Total params: 14,720
Trainable params: 13,656
Non-trainable params: 1,064
----------------------------------------------------------------
Input size (MB): 0.00
Forward/backward pass size (MB): 0.01
Params size (MB): 0.06
Estimated Total Size (MB): 0.06
----------------------------------------------------------------
----------------------------------------------------------------
        Layer (type)               Output Shape         Param #
================================================================
            Conv1d-1                 [-1, 4, 8]              16
              ReLU-2                 [-1, 4, 8]               0
            Conv1d-3                 [-1, 8, 6]             104
              ReLU-4                 [-1, 8, 6]               0
            Conv1d-5                [-1, 16, 4]             400
              ReLU-6                [-1, 16, 4]               0
            Conv1d-7                [-1, 32, 4]             544
              ReLU-8                [-1, 32, 4]               0
           Flatten-9                  [-1, 128]               0
           Linear-10                  [-1, 100]          12,900
             ReLU-11                  [-1, 100]               0
           Linear-12                    [-1, 1]             101
           Linear-13                    [-1, 5]             505
================================================================
Total params: 14,570
Trainable params: 14,570
Non-trainable params: 0
----------------------------------------------------------------
Input size (MB): 0.00
Forward/backward pass size (MB): 0.01
Params size (MB): 0.06
Estimated Total Size (MB): 0.06
----------------------------------------------------------------
2 14 10
----------------------------------------------------------------
        Layer (type)               Output Shape         Param #
================================================================
            Linear-1                [-1, 1, 10]             150
          Inputnet-2                [-1, 1, 10]               0
            Conv1d-3                 [-1, 4, 8]              16
              ReLU-4                 [-1, 4, 8]               0
            Conv1d-5                 [-1, 8, 6]             104
              ReLU-6                 [-1, 8, 6]               0
            Conv1d-7                [-1, 16, 4]             400
              ReLU-8                [-1, 16, 4]               0
            Conv1d-9                [-1, 32, 4]             544
             ReLU-10                [-1, 32, 4]               0
          Flatten-11                  [-1, 128]               0
           Linear-12                  [-1, 100]          12,900
             ReLU-13                  [-1, 100]               0
           Linear-14                    [-1, 1]             101
           Linear-15                    [-1, 5]             505
         dddQ_Net-16  [[-1, 1], [-1, 5], [-1, 5]]               0
================================================================
Total params: 14,720
Trainable params: 13,656
Non-trainable params: 1,064
----------------------------------------------------------------
Input size (MB): 0.00
Forward/backward pass size (MB): 0.01
Params size (MB): 0.06
Estimated Total Size (MB): 0.06
----------------------------------------------------------------
…
