----------------------------------------------------------------
        Layer (type)               Output Shape         Param #
================================================================
            Conv1d-1                 [-1, 5, 6]              20
              ReLU-2                 [-1, 5, 6]               0
            Conv1d-3                [-1, 10, 4]             160
              ReLU-4                [-1, 10, 4]               0
            Conv1d-5                [-1, 15, 4]             465
              ReLU-6                [-1, 15, 4]               0
            Conv1d-7                [-1, 20, 4]             920
              ReLU-8                [-1, 20, 4]               0
            Conv1d-9                [-1, 25, 4]           1,525
             ReLU-10                [-1, 25, 4]               0
           Conv1d-11                [-1, 30, 2]           2,280
             ReLU-12                [-1, 30, 2]               0
          Flatten-13                   [-1, 60]               0
           Linear-14                  [-1, 100]           6,100
             ReLU-15                  [-1, 100]               0
           Linear-16                    [-1, 1]             101
           Linear-17                    [-1, 5]             505
================================================================
Total params: 12,076
Trainable params: 12,076
Non-trainable params: 0
----------------------------------------------------------------
Input size (MB): 0.00
Forward/backward pass size (MB): 0.01
Params size (MB): 0.05
Estimated Total Size (MB): 0.05
----------------------------------------------------------------
----------------------------------------------------------------
        Layer (type)               Output Shape         Param #
================================================================
            Conv1d-1                 [-1, 5, 6]              20
              ReLU-2                 [-1, 5, 6]               0
            Conv1d-3                [-1, 10, 4]             160
              ReLU-4                [-1, 10, 4]               0
            Conv1d-5                [-1, 15, 4]             465
              ReLU-6                [-1, 15, 4]               0
            Conv1d-7                [-1, 20, 4]             920
              ReLU-8                [-1, 20, 4]               0
            Conv1d-9                [-1, 25, 4]           1,525
             ReLU-10                [-1, 25, 4]               0
           Conv1d-11                [-1, 30, 2]           2,280
             ReLU-12                [-1, 30, 2]               0
          Flatten-13                   [-1, 60]               0
           Linear-14                  [-1, 100]           6,100
             ReLU-15                  [-1, 100]               0
           Linear-16                    [-1, 1]             101
           Linear-17                    [-1, 5]             505
================================================================
Total params: 12,076
Trainable params: 12,076
Non-trainable params: 0
----------------------------------------------------------------
Input size (MB): 0.00
Forward/backward pass size (MB): 0.01
Params size (MB): 0.05
Estimated Total Size (MB): 0.05
----------------------------------------------------------------
----------------------------------------------------------------
        Layer (type)               Output Shape         Param #
================================================================
            Conv1d-1                 [-1, 4, 8]              16
              ReLU-2                 [-1, 4, 8]               0
            Conv1d-3                 [-1, 8, 6]             104
              ReLU-4                 [-1, 8, 6]               0
            Conv1d-5                [-1, 16, 4]             400
              ReLU-6                [-1, 16, 4]               0
            Conv1d-7                [-1, 32, 4]             544
              ReLU-8                [-1, 32, 4]               0
           Flatten-9                  [-1, 128]               0
           Linear-10                  [-1, 100]          12,900
             ReLU-11                  [-1, 100]               0
           Linear-12                    [-1, 1]             101
           Linear-13                    [-1, 5]             505
================================================================
Total params: 14,570
Trainable params: 14,570
Non-trainable params: 0
----------------------------------------------------------------
Input size (MB): 0.00
Forward/backward pass size (MB): 0.01
Params size (MB): 0.06
Estimated Total Size (MB): 0.06
----------------------------------------------------------------
----------------------------------------------------------------
        Layer (type)               Output Shape         Param #
================================================================
            Conv1d-1                 [-1, 4, 8]              16
              ReLU-2                 [-1, 4, 8]               0
            Conv1d-3                 [-1, 8, 6]             104
              ReLU-4                 [-1, 8, 6]               0
            Conv1d-5                [-1, 16, 4]             400
              ReLU-6                [-1, 16, 4]               0
            Conv1d-7                [-1, 32, 4]             544
              ReLU-8                [-1, 32, 4]               0
           Flatten-9                  [-1, 128]               0
           Linear-10                  [-1, 100]          12,900
             ReLU-11                  [-1, 100]               0
           Linear-12                    [-1, 1]             101
           Linear-13                    [-1, 5]             505
================================================================
Total params: 14,570
Trainable params: 14,570
Non-trainable params: 0
----------------------------------------------------------------
Input size (MB): 0.00
Forward/backward pass size (MB): 0.01
Params size (MB): 0.06
Estimated Total Size (MB): 0.06
----------------------------------------------------------------
----------------------------------------------------------------
        Layer (type)               Output Shape         Param #
================================================================
            Conv1d-1                 [-1, 4, 8]              16
              ReLU-2                 [-1, 4, 8]               0
            Conv1d-3                 [-1, 8, 6]             104
              ReLU-4                 [-1, 8, 6]               0
            Conv1d-5                [-1, 16, 4]             400
              ReLU-6                [-1, 16, 4]               0
            Conv1d-7                [-1, 32, 4]             544
              ReLU-8                [-1, 32, 4]               0
           Flatten-9                  [-1, 128]               0
           Linear-10                  [-1, 100]          12,900
             ReLU-11                  [-1, 100]               0
           Linear-12                    [-1, 1]             101
           Linear-13                    [-1, 5]             505
================================================================
Total params: 14,570
Trainable params: 14,570
Non-trainable params: 0
----------------------------------------------------------------
Input size (MB): 0.00
Forward/backward pass size (MB): 0.01
Params size (MB): 0.06
Estimated Total Size (MB): 0.06
----------------------------------------------------------------
----------------------------------------------------------------
        Layer (type)               Output Shape         Param #
================================================================
            Conv1d-1                 [-1, 4, 8]              16
              ReLU-2                 [-1, 4, 8]               0
            Conv1d-3                 [-1, 8, 6]             104
              ReLU-4                 [-1, 8, 6]               0
            Conv1d-5                [-1, 16, 4]             400
              ReLU-6                [-1, 16, 4]               0
            Conv1d-7                [-1, 32, 4]             544
              ReLU-8                [-1, 32, 4]               0
           Flatten-9                  [-1, 128]               0
           Linear-10                  [-1, 100]          12,900
             ReLU-11                  [-1, 100]               0
           Linear-12                    [-1, 1]             101
           Linear-13                    [-1, 5]             505
================================================================
Total params: 14,570
Trainable params: 14,570
Non-trainable params: 0
----------------------------------------------------------------
Input size (MB): 0.00
Forward/backward pass size (MB): 0.01
Params size (MB): 0.06
Estimated Total Size (MB): 0.06
----------------------------------------------------------------
----------------------------------------------------------------
        Layer (type)               Output Shape         Param #
================================================================
            Conv1d-1                 [-1, 4, 8]              16
              ReLU-2                 [-1, 4, 8]               0
            Conv1d-3                 [-1, 8, 6]             104
              ReLU-4                 [-1, 8, 6]               0
            Conv1d-5                [-1, 16, 4]             400
              ReLU-6                [-1, 16, 4]               0
            Conv1d-7                [-1, 32, 4]             544
              ReLU-8                [-1, 32, 4]               0
           Flatten-9                  [-1, 128]               0
           Linear-10                  [-1, 100]          12,900
             ReLU-11                  [-1, 100]               0
           Linear-12                    [-1, 1]             101
           Linear-13                    [-1, 5]             505
================================================================
Total params: 14,570
Trainable params: 14,570
Non-trainable params: 0
----------------------------------------------------------------
Input size (MB): 0.00
Forward/backward pass size (MB): 0.01
Params size (MB): 0.06
Estimated Total Size (MB): 0.06
----------------------------------------------------------------
----------------------------------------------------------------
        Layer (type)               Output Shape         Param #
================================================================
            Conv1d-1                 [-1, 4, 8]              16
              ReLU-2                 [-1, 4, 8]               0
            Conv1d-3                 [-1, 8, 6]             104
              ReLU-4                 [-1, 8, 6]               0
            Conv1d-5                [-1, 16, 4]             400
              ReLU-6                [-1, 16, 4]               0
            Conv1d-7                [-1, 32, 4]             544
              ReLU-8                [-1, 32, 4]               0
           Flatten-9                  [-1, 128]               0
           Linear-10                  [-1, 100]          12,900
             ReLU-11                  [-1, 100]               0
           Linear-12                    [-1, 1]             101
           Linear-13                    [-1, 5]             505
================================================================
Total params: 14,570
Trainable params: 14,570
Non-trainable params: 0
----------------------------------------------------------------
Input size (MB): 0.00
Forward/backward pass size (MB): 0.01
Params size (MB): 0.06
Estimated Total Size (MB): 0.06
----------------------------------------------------------------
episode: 0
epoch: 1
…
